code/check/Lenet.pkl (torch_old, 268903 bytes, 10 tensors)

weight f4 [6, 3, 5, 5]
0	0xbc4b41b7	-0.012405804
1	0x3e3330fb	0.17499153
2	0x3e15aebc	0.14617437
3	0x3d8e30ae	0.06942879
4	0x3e410942	0.18851188
5	0x3d1948c7	0.03742292
6	0x3de7bc8f	0.113152616
7	0xbcc81701	-0.024425032
8	0x3e1ed7ed	0.15512057
9	0x3d3954a6	0.045246743
10	0x3e262683	0.16225629
11	0x3e243d3e	0.16038987
12	0xbd75aa48	-0.059976846
13	0xbd3c4674	-0.045965627
14	0xbcb3571c	-0.021892123
15	0xbd8505c3	-0.064952396
16	0x3df232e3	0.11826112
17	0x3d3c30ef	0.045945104
18	0xbdd3c53d	-0.103403546
19	0x3ccb05b8	0.024783
20	0xbbea9aae	-0.0071595525
21	0xbd536294	-0.051607683
22	0xbe25ee75	-0.16204245
23	0xbe2388a6	-0.15970096
24	0xbd4c0363	-0.049807917
25	0xbd0e07ba	-0.034675337
26	0xbd58f286	-0.052965663
27	0xbdaeb5c2	-0.08530761
28	0xbdf1fe8e	-0.118161306
29	0x3c9c007b	0.019043198
30	0xbd0d23f2	-0.03445811
31	0xbd8ceccf	-0.06881105
32	0x3c3fe8ca	0.011713216
33	0xbd9c4ddf	-0.0763204
34	0xbd86d275	-0.0658311
35	0x3d63568f	0.05550247
36	0xbdeed676	-0.11661999
37	0xbe16f944	-0.14743525
38	0xbe1993fc	-0.14997858
39	0xbe0686ba	-0.13137332
40	0xbd1bdacc	-0.038050458
41	0x3d2b6753	0.041846585
42	0xbd96361d	-0.0733454
43	0x3c60ae70	0.013713464
44	0xbe0f4f64	-0.13995129
45	0xbc052328	-0.008126058
46	0xbdff743e	-0.12473343
47	0xbe0e190c	-0.13876742
48	0xbdd3d431	-0.10343207
49	0xbd9a039f	-0.07520222
50	0x3ca48fc9	0.020088093
51	0xbd969967	-0.07353478
52	0x3dc0ab10	0.094076276
53	0x3dac9d28	0.08428413
54	0xbd917b89	-0.071036406
55	0x3d282e86	0.041059993
56	0xbd07ffb4	-0.033202842
57	0x3d3b7bee	0.045772485
58	0xbd56bb5e	-0.05242478
59	0xbde1a002	-0.11016847
60	0xbcc3781c	-0.023860984
61	0x3daf5070	0.08560264
62	0x3d94b00d	0.072601415
63	0xbda2c937	-0.07948535
64	0x3cad4efe	0.02115583
65	0xbcacdadd	-0.021100456
66	0x3b86f6a2	0.0041187564
67	0x3d903ead	0.070432045
68	0x3d2aff65	0.04174747
69	0x3d0475c3	0.03233887
70	0x3d24b041	0.04020715
71	0xbd1f2be4	-0.038860217
72	0xbd144fbf	-0.036208864
73	0xbd943d19	-0.07238216
74	0x3e0c1448	0.13679612
75	0x3ce56886	0.028003942
76	0x3d8b388c	0.06797895
77	0x3dbf18e1	0.09330917
78	0xbdfabb84	-0.12242797
79	0xbda1ca9b	-0.07899972
80	0x3c1ea62b	0.009683172
81	0xbe14aec7	-0.14519797
82	0xbe33aba6	-0.17545947
83	0xbdcd60b1	-0.10028208
84	0xbe17ba0b	-0.14817064
85	0xbdab7f1d	-0.08373854
86	0xbd9de7a7	-0.077102
87	0xbe256b94	-0.16154319
88	0xbdf4ac63	-0.11946943
89	0x3a56e633	0.00081977545
90	0x3ced52d7	0.028970165
91	0x3df36574	0.11884585
92	0x3d29c2ec	0.041445658
93	0x3e0ac2a3	0.1355081
94	0x3dc67859	0.09690923
95	0x3bd48ecb	0.006486749
96	0x3dcda648	0.10041481
97	0x3df43fc9	0.119262286
98	0xbc74c7e9	-0.01494024
99	0x3d0501ef	0.032472547
100	0x3d048a4c	0.032358453
101	0x3d996d6c	0.07491574
102	0xbdd3ac4e	-0.10335599
103	0xbd40bab4	-0.047053054
104	0x3e0354ab	0.12825267
105	0xbd293338	-0.04130861
106	0xbd864a85	-0.06557182
107	0xbcab8f77	-0.020942433
108	0xbd2d1609	-0.042257342
109	0x3c97c54b	0.018526694
110	0xbe120c41	-0.14262487
111	0xbe109ae0	-0.1412158
112	0xbd9cd140	-0.07657099
113	0xbdce778a	-0.10081394
114	0xbd1855f2	-0.03719134
115	0xbc858375	-0.016298035
116	0x3c331db4	0.010932375
117	0x3dfac673	0.122448824
118	0x3e1699b6	0.14707074
119	0x3c018a1a	0.007906461
120	0x3c6dd69d	0.0145165
121	0xbc2eec95	-0.010676523
122	0x3dc03896	0.09385793
123	0xbd0a3747	-0.033744123
124	0x3e18004a	0.1484386
125	0xbcf9090a	-0.030399818
126	0xbd5271cf	-0.051378068
127	0x3e121094	0.14264137
128	0x3e295259	0.1653532
129	0x3ddffae8	0.109365284
130	0x3d4f5ca6	0.050625466
131	0xbdc21a42	-0.094776645
132	0x3d78f962	0.060784705
133	0xbddf2e68	-0.10897523
134	0xbdbe3dc2	-0.09289123
135	0xbde1f7f4	-0.110336214
136	0xbae9b276	-0.0017829675
137	0xbd57ceea	-0.052687563
138	0xbc6c4187	-0.01441992
139	0xbdd164bf	-0.10224294
140	0x3d9883bb	0.074470006
141	0x3d738fcd	0.05946331
142	0x3d5c76b0	0.053824127
143	0x3aba9766	0.0014235794
144	0x3e242e76	0.16033348
145	0x3defb0a4	0.117036134
146	0x3de162c1	0.11005164
147	0x3cf11e0c	0.029433273
148	0x3da9fbb3	0.08299961
149	0xbd66d286	-0.056353115
150	0xbd8b019c	-0.06787416
151	0xbdca03fb	-0.098640405
152	0x3cd57fed	0.026061976
153	0x3d87c4b6	0.066293165
154	0x3d42aa9c	0.047525987
155	0xbe581740	-0.21102619
156	0x3b879148	0.004137192
157	0x3e02fe0d	0.12792225
158	0x3d65bad9	0.056086395
159	0xbd8f781f	-0.07005333
160	0xbda91072	-0.0825509
161	0xbd826414	-0.06366745
162	0x3e3323e0	0.17494154
163	0x3df3eb53	0.11910119
164	0xbe0b7a06	-0.13620767
165	0xbd8f55b1	-0.06998766
166	0x3cd91803	0.026500707
167	0x3ca23476	0.019800406
168	0x3e14a10b	0.14514558
169	0xbe2a1f6c	-0.16613549
170	0x3d0854ac	0.033283874
171	0x3d21add6	0.039472423
172	0x3de0e74e	0.10981618
173	0x3d8d2c56	0.06893222
174	0xbd8c4abb	-0.06850191
175	0xbe411808	-0.18856823
176	0x3b9456f5	0.0045269676
177	0xbd8be7e1	-0.06831337
178	0x3de640b5	0.11242811
179	0xbd8fe9ab	-0.070269905
180	0x3c1c2763	0.009530875
181	0xbd54ac45	-0.0519221
182	0x3d9204a8	0.07129794
183	0x3dab8a71	0.08376015
184	0x3d5d8267	0.05407944
185	0xbe370e70	-0.17876601
186	0xbd5353cd	-0.05159359
187	0x3dfa483c	0.12220809
188	0x3e06b434	0.1315468
189	0xbde5f34e	-0.11228047
190	0xbe048b8b	-0.12943856
191	0xbd4aacb3	-0.049481105
192	0x3e18c23e	0.14917848
193	0x3bf46a21	0.0074589406
194	0x3d6d0efa	0.05787561
195	0x3d0bfa2b	0.034174126
196	0xbdcb4092	-0.09924425
197	0x3e37a991	0.17935778
198	0x3e0e8853	0.13919191
199	0xbe14ca0c	-0.145302
200	0xbe030a65	-0.12796934
201	0xbbf075d7	-0.0073382664
202	0x3d8083e5	0.06275157
203	0x3e04cd46	0.1296893
204	0x3d17046a	0.036869444
205	0xbe4bc825	-0.19900568
206	0xbd60243f	-0.054722067
207	0x3e4003e3	0.18751483
208	0x3da3f5ac	0.080058426
209	0xbde77cb9	-0.11303086
210	0xbc97c0aa	-0.018524487
211	0xbd122f7b	-0.035689812
212	0x3dc2fd90	0.095210195
213	0x3c89ef2f	0.016837684
214	0x3cbaa3ca	0.022783179
215	0xbdde264e	-0.1084715
216	0xbcb1c53e	-0.021700498
217	0x3e2c8440	0.16847324
218	0xbcac8246	-0.021058213
219	0x3aa3be8e	0.0012492703
220	0xbc580a13	-0.013185996
221	0x3df95078	0.12173551
222	0x3d844936	0.064592764
223	0x3d758d5f	0.059949275
224	0xbe0054a8	-0.12532294
225	0xbe03b8a7	-0.12863408
226	0x3be8b795	0.007101963
227	0x3c495c52	0.012290077
228	0xbd4d8c83	-0.05018283
229	0xbdf41b69	-0.119192906
230	0x3cafed3e	0.02147543
231	0xbe0784ed	-0.13234301
232	0xbe0243e9	-0.12721218
233	0x3d821cb0	0.06353128
234	0x3cf22687	0.029559387
235	0x3d0e0f36	0.034682475
236	0xbd26f5e7	-0.040761854
237	0xbd2781d9	-0.040895317
238	0xbd960e79	-0.07326979
239	0xbd0b7eca	-0.034056462
240	0xbc32f827	-0.010923422
241	0xbdc8d013	-0.09805312
242	0xbd75a6cf	-0.059973534
243	0x3cd5d0b8	0.026100501
244	0x3d034698	0.032049745
245	0x3c58b646	0.013227051
246	0xbdd6b068	-0.104828656
247	0x3d2fcc52	0.042919464
248	0x3d6b20c2	0.057404287
249	0x3db292f8	0.08719438
250	0xbdb31e9f	-0.08746075
251	0xbd411035	-0.047134597
252	0xbce1ce6b	-0.027564248
253	0x3c086c22	0.008326562
254	0xbe0e60bf	-0.13904093
255	0x3bbf7d4c	0.005843794

bias f4 [6]
0	0x3d8286ae	0.06373344
1	0x3ded2a9d	0.115803935
2	0x3d91cf27	0.07119589
3	0x3e4f777b	0.20260422
4	0x3e61a404	0.22035223
5	0x3da8c481	0.08240605

weight f4 [16, 6, 5, 5]
0	0x3e18c448	0.14918625
1	0x3db6f929	0.08934242
2	0x3e00642f	0.12538217
3	0x3d4736ec	0.048636362
4	0x3e2fc2b4	0.17164117
5	0x3d394de0	0.045240283
6	0xbce1009b	-0.027466109
7	0x3d6498c3	0.055809747
8	0x3d5a577f	0.0533061
9	0x3c5bf962	0.013426157
10	0x3cf5f2ec	0.03002306
11	0x3d872e91	0.06600679
12	0x3e017e8c	0.1264593
13	0x3cde29e1	0.027119579
14	0x3d5a8348	0.053347856
15	0x3da8c5ed	0.08240876
16	0xbb13f3c0	-0.0022575706
17	0x3ce7f723	0.028316086
18	0xbd08a0c6	-0.03335645
19	0xbd799a7c	-0.060938343
20	0x3cb9bb28	0.02267225
21	0x3dab01b1	0.08349932
22	0x3da2a409	0.079414435
23	0x3c147778	0.009061687
24	0xbdacfe18	-0.08446902
25	0x3d2f7703	0.042838108
26	0x3d899619	0.06718082
27	0x3d989296	0.07449834
28	0xbceb06f8	-0.028689846
29	0x3d2fdc5e	0.042934768
30	0x3dd999ff	0.106250755
31	0x3d35ac91	0.044354025
32	0x3da6b07f	0.08139133
33	0x3d08c816	0.03339394
34	0x3e198812	0.14993313
35	0xbcfbbdda	-0.030730177
36	0x3d680bbd	0.05665182
37	0x3d7958f5	0.06087585
38	0x3c9b4ac9	0.018956559
39	0x3e3c72d1	0.18403174
40	0xbcc012f1	-0.023446532
41	0x3decd54d	0.115641214
42	0x3db0ce03	0.086330436
43	0x3dc48747	0.095961146
44	0x3c380c43	0.011233392
45	0x3dd6f128	0.10495216
46	0xbd16faf1	-0.03686041
47	0xbb30331e	-0.0026885937
48	0x3c15a632	0.009133862
49	0x3cb06f75	0.021537522
50	0x3d7aa887	0.061195876
51	0x3c6f8b9e	0.01462069
52	0x3e3b536a	0.18293539
53	0x3dce6ab8	0.10078949
54	0xbd129bd5	-0.035793144
55	0x3da0dbe7	0.07854443
56	0x3d5bb7e1	0.053642157
57	0x3ccdf64c	0.025141858
58	0xbd2c50f8	-0.042069405
59	0xbc7dff3a	-0.015502745
60	0x3d4485a5	0.047979016
61	0x3cd4c214	0.02597145
62	0xbc9060be	-0.017624255
63	0xbcf08d52	-0.029364262
64	0x3df658fe	0.12028693
65	0x3d7bbd5e	0.06145989
66	0xbd563a09	-0.05230144
67	0xbdaa4439	-0.08313794
68	0xbcc95584	-0.02457691
69	0x3dc803c0	0.0976634
70	0xbd9b3d2c	-0.07580027
71	0x3ca1cec0	0.019751906
72	0x3d88ac20	0.06673455
73	0x3dac9553	0.08426919
74	0xbc963eb7	-0.018340452
75	0x3da60e91	0.08108247
76	0x3da55c2f	0.08074223
77	0x3cd8a471	0.0264456
78	0xbcdb5d73	-0.026777958
79	0x3cbea53e	0.023272153
80	0xbd03b447	-0.032154348
81	0xbcfdf062	-0.030998413
82	0xbd3272bd	-0.043566454
83	0xbd821dd5	-0.06353346
84	0xbdcdec8b	-0.100548826
85	0x3d2cc421	0.04217923
86	0xbdac82a5	-0.08423356
87	0xbc2dd9ec	-0.010611039
88	0xbca7c858	-0.020481274
89	0xbbda516d	-0.0066625387
90	0xbd034eda	-0.03205762
91	0x38f0f15c	0.000114890485
92	0xbd1232f7	-0.035693135
93	0xbd62eb23	-0.055400025
94	0xbd106e5e	-0.035261504
95	0x3d5c3da0	0.053769708
96	0x3cba0249	0.022706168
97	0x3c7fa5f9	0.015603536
98	0x3d43207d	0.047638405
99	0xbd817a1f	-0.06322121
100	0x3d9abcb5	0.07555524
101	0x3cd9c115	0.026581326
102	0x3d9f6060	0.07782054
103	0xbc581062	-0.0131875
104	0xbddc06b5	-0.10743467
105	0x3d9e452a	0.07728036
106	0x3d8b61f4	0.068057925
107	0xbd5ac1bd	-0.05340742
108	0x3c256f40	0.010097325
109	0xbde460ed	-0.111512996
110	0xbd8990ec	-0.06717095
111	0xbd88510e	-0.06656085
112	0x3d551ac3	0.052027475
113	0x3d81b4dc	0.06333324
114	0x3c904818	0.017612502
115	0xbd5d2013	-0.053985666
116	0x3da5456a	0.0806988
117	0xbd37d056	-0.04487642
118	0xbd9633a6	-0.0733407
119	0x3b54436f	0.0032388826
120	0xbc9dc5a8	-0.019259289
121	0xbd8956a1	-0.06705976
122	0xbc603845	-0.013685291
123	0x3da79559	0.08182783
124	0xba66922b	-0.00087955844
125	0xbdbc8c04	-0.09206393
126	0xbc6b9ac2	-0.014380159
127	0x3cf117cc	0.029430293
128	0x3ca99a96	0.020703595
129	0x3d866b47	0.0656343
130	0xbd6b897c	-0.057504162
131	0xbdc784bb	-0.09742113
132	0xbd9ad193	-0.07559504
133	0xbcbdece4	-0.023184247
134	0x3d853639	0.06504483
135	0xbb9c1dcc	-0.0047642943
136	0xbd8b334b	-0.06796893
137	0x3ccc3939	0.02492963
138	0x3dd85758	0.105635345
139	0x3d496a58	0.049173683
140	0x3cc6f75a	0.024287868
141	0x3dab3fda	0.08361788
142	0x3d3c933a	0.046038844
143	0x3d7c2ec4	0.061568037
144	0x3c49fb51	0.012327985
145	0xbd56735d	-0.052356113
146	0xbc59e241	-0.013298572
147	0x3cc7ad21	0.024374546
148	0xbd7d71d8	-0.061876148
149	0xbda550e2	-0.08072068
150	0x3dc6626c	0.09686741
151	0x3e237ecd	0.1596634
152	0x3dc04673	0.09388437
153	0x3c790b87	0.015200502
154	0x3dd2ac84	0.10286811
155	0x3dc39982	0.09550764
156	0x3cc2f7d9	0.023799824
157	0x3df67933	0.12034836
158	0x3c93b106	0.018028747
159	0x3da5809b	0.0808117
160	0x3db821fa	0.089908555
161	0x3c6a3e4c	0.014297079
162	0x3e09c533	0.13454132
163	0x3e0f0472	0.1396654
164	0x3d5c2bb7	0.053752627
165	0x3c394439	0.011307769
166	0x3c927bf7	0.017881377
167	0x3de50b21	0.11183763
168	0x3d98bdc1	0.07458068
169	0xbd48675b	-0.048926692
170	0xbd38ef0e	-0.045149855
171	0xbce5ad46	-0.028036725
172	0xbd83256b	-0.06403621
173	0xbd81d399	-0.06339187
174	0xbdbbc51f	-0.09168457
175	0x3cfc63c9	0.0308093
176	0xbbca6a5f	-0.006177231
177	0xbcad0761	-0.021121683
178	0x3d915b2f	0.0709747
179	0x3cae7770	0.021297187
180	0x3dc075a9	0.09397442
181	0xbccef764	-0.02526445
182	0x3e0fba4c	0.1403591
183	0xbbe97ea3	-0.007125692
184	0x3dbc05f7	0.09180825
185	0xbc93a528	-0.018023089
186	0x3de145f2	0.10999669
187	0xbc65241a	-0.013985658
188	0x3dce7c5a	0.10082312
189	0x3dabead6	0.08394401
190	0xbc10f2a8	-0.008846916
191	0x3dac5b53	0.08415856
192	0x3cde7001	0.027153017
193	0x3db7fb90	0.089835286
194	0x3dde7c7c	0.10863587
195	0x3cda339e	0.026635941
196	0x3e263672	0.16231707
197	0x3d7b0452	0.061283417
198	0x3e1278aa	0.14303842
199	0x3d54175b	0.051780086
200	0x3d7e274e	0.062049203
201	0x3d4a921b	0.049455743
202	0x3c814e35	0.015784362
203	0x3e072247	0.1319667
204	0x3d974d9d	0.073878504
205	0x3da5818d	0.080813505
206	0x3dee4187	0.11633592
207	0x3d98d8ab	0.07463201
208	0x3de0273a	0.10944982
209	0x3d2dcf89	0.04243425
210	0x3a4fef59	0.0007932089
211	0x3c65c8ae	0.014024897
212	0x3decb0e9	0.115571804
213	0x3d580db5	0.052747447
214	0x3e00afd8	0.12567079
215	0xbd293852	-0.041313477
216	0x3db69eea	0.08917029
217	0xbd4de26a	-0.050264753
218	0x3dc80402	0.097663894
219	0x3d6ac32e	0.057315044
220	0x3a657fbc	0.00087546906
221	0x3d01d0da	0.031693317
222	0x3a267996	0.0006350515
223	0xbc24647f	-0.010033726
224	0x3dfee3f9	0.12445826
225	0x3d19d5af	0.0375573
226	0xbd691ff8	-0.056915253
227	0x3d80a70b	0.06281861
228	0x3ca7f884	0.020504244
229	0x3d60e8d7	0.054909553
230	0xbd8ca5d9	-0.068675704
231	0xbd7e827f	-0.06213617
232	0xbd22a1de	-0.03970515
233	0x3d1162c3	0.035494577
234	0x3d11460f	0.035467204
235	0xbd924891	-0.07142747
236	0xbca1158e	-0.019663598
237	0x3ca57824	0.02019889
238	0x3da2885b	0.07936164
239	0x3d7049db	0.058664184
240	0xbde42d4a	-0.11141451
241	0xbd911c95	-0.0708553
242	0x3d670718	0.05640325
243	0xbc817771	-0.015804024
244	0x3ccbc8a9	0.024875956
245	0xbd4d049e	-0.05005323
246	0xbd1d1116	-0.038346373
247	0x3bc5b92c	0.006034037
248	0x3d75296a	0.05985395
249	0xbd85fa70	-0.06541908
250	0xbd36df37	-0.044646468
251	0xbd4fffaa	-0.05078093
252	0xbc0ee632	-0.008721875
253	0xbd45249f	-0.048130628
254	0x3d8f8ad9	0.07008905
255	0x3c863e02	0.01638699

bias f4 [16]
0	0x3dd76737	0.105177335
1	0x3cb89c4e	0.02253547
2	0xbd94a18d	-0.07257376
3	0x3b3ef2e2	0.0029136469
4	0x3cb0ecd1	0.021597298
5	0xbca73636	-0.020411592
6	0x3e1fd2ac	0.15607709
7	0xbd4bd07e	-0.04975938
8	0x3ab22afd	0.0013593134
9	0x3dd54fc0	0.10415602
10	0x3dee3ba3	0.116324686
11	0x3e34ec97	0.17668377
12	0x3cdd410d	0.027008558
13	0x3ddee634	0.108837515
14	0xbd7d1a7d	-0.06179284
15	0xbc9c23eb	-0.019060096

weight f4 [120, 400]
0	0x3caaeeea	0.020865876
1	0xbcce5385	-0.02518631
2	0xbd2fb6f4	-0.042899087
3	0x3c8dc1d5	0.01730434
4	0xbd309e56	-0.04311975
5	0x3cf61605	0.030039797
6	0xbd493056	-0.049118362
7	0x3d177c90	0.036984026
8	0xbca34d2d	-0.019934261
9	0xbb2c8965	-0.002632701
10	0xbd68661e	-0.05673801
11	0x3ca33884	0.01992441
12	0xbcbf9f49	-0.023391383
13	0xbd4046a0	-0.046942353
14	0xbd19cf02	-0.037550934
15	0xbb02a838	-0.0019936692
16	0x3c7e124a	0.01550729
17	0xbb8c862b	-0.004288455
18	0xbd559d46	-0.05215194
19	0xbd17e5fd	-0.03708457
20	0xbcbdbb8c	-0.023160718
21	0xbd44e7fe	-0.048072807
22	0xbc9aa6cd	-0.018878365
23	0xbcb25c6a	-0.021772582
24	0xbc9f1858	-0.019420788
25	0xbbedff42	-0.007263095
26	0xbc17c127	-0.00926236
27	0x3c33b560	0.010968536
28	0x3d15471c	0.03644477
29	0x3b62cb32	0.0034605977
30	0x3c95be1b	0.018279126
31	0xbd6d5743	-0.057944547
32	0x3becf4ae	0.0072313165
33	0x3cd60de4	0.02612967
34	0x3d26142f	0.040546592
35	0x3d0423a3	0.03226055
36	0x3ca66a41	0.020314338
37	0x3c8d9f63	0.017287916
38	0x3d2149f0	0.039377153
39	0x3cb9f74b	0.022700926
40	0x3c8c8fe0	0.017158449
41	0x3d15d3d2	0.03657896
42	0x3c045af5	0.0080783265
43	0x3b9f6f34	0.0048655514
44	0xbd21d022	-0.03950513
45	0x3c99c3ee	0.018770184
46	0x3b27df60	0.002561532
47	0x3c0339fb	0.008009429
48	0xbd605381	-0.054767136
49	0xbd00ed7e	-0.03147649
50	0xbd0bc264	-0.034120932
51	0x3bccf42f	0.006254695
52	0xbcaca590	-0.02107504
53	0xbc5eafdc	-0.013591733
54	0xbcbea5a7	-0.023272349
55	0xbc736040	-0.014854491
56	0x3b84db1e	0.004054441
57	0x3cdd21b2	0.026993606
58	0x3a5d7c0c	0.00084489654
59	0x3c3f53ec	0.011677723
60	0x3c8ddc13	0.017316854
61	0xbd59672c	-0.053076908
62	0x3d077c95	0.033077795
63	0x3c6e68b3	0.014551329
64	0xbce6d8ab	-0.028179487
65	0x3bfd1110	0.0077229813
66	0x3d3e8569	0.04651395
67	0xbcf51383	-0.02991653
68	0xbc9584c0	-0.018251777
69	0x3c1636a5	0.009168302
70	0x3cd6292e	0.026142683
71	0x3c85d3d0	0.016336352
72	0x3a5ef872	0.0008505649
73	0x3c5e0d43	0.0135529665
74	0xbcbabdd5	-0.022795597
75	0x3d22c558	0.039738983
76	0x3d0c0a97	0.034189787
77	0x3ba011d0	0.004884936
78	0xbbe3af53	-0.0069483905
79	0xbcf24137	-0.029572112
80	0xbbda1300	-0.006655097
81	0xbcb97b30	-0.022641748
82	0x3be650d1	0.007028677
83	0x3d4478d8	0.047966808
84	0xbd370f75	-0.044692475
85	0x3bdc12c0	0.0067161024
86	0xbb7792f0	-0.003777679
87	0x3cfbae1f	0.030722676
88	0xbd8475e2	-0.06467797
89	0x3c5e27bd	0.013559279
90	0xbd10cff1	-0.03535456
91	0x3d28e1cc	0.04123096
92	0x3d273515	0.040822107
93	0xbc3081d6	-0.010773143
94	0x3cab8927	0.020939423
95	0x3d429dac	0.04751365
96	0xbcc67d61	-0.024229707
97	0xbcbc2e3c	-0.022971265
98	0x3be3a9ce	0.0069477325
99	0xbcf75861	-0.03019351
100	0xbd224a64	-0.039621726
101	0xbc114f49	-0.008869001
102	0x3cc3f605	0.023921022
103	0xbd51084a	-0.051033296
104	0x3c8dbe56	0.017302673
105	0xbd0a71fd	-0.033800114
106	0x3c06f4d3	0.008237082
107	0xbcbc26bd	-0.02296769
108	0x3cb9cc6e	0.022680487
109	0x3c1ffd2a	0.009764949
110	0x3c20de93	0.009818691
111	0xbd04f2cd	-0.032458115
112	0xbcc133f4	-0.023584343
113	0x3cea7f29	0.028625088
114	0xbc55b65b	-0.013043965
115	0xbc684d69	-0.014178612
116	0x3cbf14b6	0.023325305
117	0xbc9fe796	-0.019519608
118	0x3cb72721	0.022357525
119	0x3ceb8424	0.028749533
120	0x3cd686ee	0.026187386
121	0xbd102e63	-0.035200488
122	0x3ce132a0	0.02748996
123	0x3d2fbd93	0.0429054
124	0x3c553f53	0.013015586
125	0xbbf8b8b9	-0.00759038
126	0x3ca125a2	0.019671265
127	0x3c1f0337	0.009705356
128	0x3c9909de	0.018681463
129	0x3ceafb74	0.028684355
130	0xbbeacfb6	-0.0071658744
131	0x3d0ad0d9	0.03389058
132	0x3cf285ba	0.029604781
133	0xbd42c6d0	-0.047552884
134	0xbc70152f	-0.014653488
135	0xbd93f14e	-0.072237596
136	0xbd14bae7	-0.036311056
137	0xbcf5a1b4	-0.029984333
138	0xbd7a4822	-0.061103947
139	0x3c911bd3	0.017713463
140	0xbcd0e623	-0.025500363
141	0x3c89239d	0.016740615
142	0xbd38446f	-0.04498714
143	0x3c4919ef	0.012274249
144	0x3ce46e16	0.027884524
145	0x3afaca2e	0.001913374
146	0xbcc2c8d9	-0.023777412
147	0xbd154dcf	-0.036451157
148	0x3d208cc8	0.03919676
149	0x3d540d80	0.051770687
150	0xbd7ec325	-0.062197823
151	0x3cd1339a	0.0255373
152	0x3d03bdbc	0.032163367
153	0xbd657a49	-0.056024823
154	0xbcf0b840	-0.029384732
155	0xbd0aae90	-0.033857882
156	0xbd64223c	-0.05569671
157	0x3c2ad8e7	0.01042769
158	0xbcc4a491	-0.024004253
159	0x3c9ac610	0.018893272
160	0xbd161ce2	-0.03664864
161	0xbc796111	-0.015220896
162	0xbd1e3858	-0.038627952
163	0x3c9f39b0	0.019436687
164	0xbc8b0033	-0.016967868
165	0xbd7451f2	-0.05964846
166	0xbd1fb400	-0.03899002
167	0xbd50d2e4	-0.05098237
168	0xbb9ddbe0	-0.004817471
169	0xbd678403	-0.05652238
170	0xbcaed77c	-0.021342985
171	0xbd59ff95	-0.053222258
172	0x3b335fed	0.0027370409
173	0x3bd8c8b6	0.0066157235
174	0x3cf497b9	0.029857503
175	0xbd2ff49b	-0.042957883
176	0x3ce6ebc0	0.028188586
177	0xbd019025	-0.031631608
178	0xbd73880b	-0.059455913
179	0xbd4829a7	-0.048867848
180	0x3c948f4b	0.018134734
181	0x3c8a7838	0.016903028
182	0x398f1937	0.00027293872
183	0xbd827d39	-0.063715406
184	0xbd647841	-0.055778746
185	0xbcfb1e6e	-0.030654158
186	0xbcbad93f	-0.02280867
187	0xbbddfeb8	-0.0067747496
188	0xbd94b4f8	-0.072610795
189	0xbc2b303c	-0.010448512
190	0xbc444833	-0.011980104
191	0xbcaba415	-0.020952264
192	0x3acff773	0.0015866592
193	0x3c023825	0.007947956
194	0xbb9ccbb5	-0.004785026
195	0xbcffbd96	-0.031218331
196	0xbcf05f62	-0.029342357
197	0x3c21fca8	0.009886898
198	0xbadfe2e4	-0.0017081168
199	0x3d0d14df	0.034443732
200	0xbd092570	-0.03348297
201	0x3c3883a4	0.011261854
202	0xbcb558cc	-0.022137068
203	0xbd1d796e	-0.038445882
204	0x3c68ee1c	0.014216926
205	0x3d20acab	0.03922717
206	0x3ce5d2af	0.028054563
207	0xbd7c96cb	-0.061667245
208	0xbb74d853	-0.0037360385
209	0xbd71b22f	-0.05900782
210	0xbad9358d	-0.0016571746
211	0xbadcdc8e	-0.0016850398
212	0xbd5fe2ca	-0.054659642
213	0xbb2d37f0	-0.0026431046
214	0xbd752776	-0.059852086
215	0x3bc3f612	0.0059802616
216	0xbc982052	-0.018570099
217	0x3bf54a58	0.007485669
218	0x3b43cfe3	0.0029878549
219	0xbd269dbd	-0.040677775
220	0xbc32f5ff	-0.010922908
221	0xbbf1ae30	-0.007375501
222	0xbd3f757f	-0.046742912
223	0x3d0b366d	0.03398745
224	0xbd0d11fa	-0.034440972
225	0x3c209664	0.009801481
226	0x3d043f14	0.03228672
227	0x3c902e44	0.017600186
228	0xbd4613b9	-0.048358653
229	0xbd03e442	-0.032200105
230	0xbc90dc1f	-0.017683087
231	0x3bc8283e	0.006108313
232	0xbbbdf7d2	-0.0057973647
233	0x3a1e6034	0.0006041557
234	0x3c8e8412	0.01739696
235	0xbc9f8202	-0.019471172
236	0xbd2be271	-0.041964
237	0x3cd83c64	0.026395984
238	0xbd68896b	-0.056771677
239	0xbd826a42	-0.06367923
240	0x3b0a7734	0.002112818
241	0x38c4eb86	9.389878e-05
242	0xbceaa877	-0.028644783
243	0x3cf2a3a6	0.02961905
244	0xbd6a45ca	-0.057195462
245	0xbcd3f611	-0.02587417
246	0xbd09ac37	-0.033611502
247	0x3c4feb23	0.012690338
248	0xbd8f8dba	-0.07009454
249	0xbd8167eb	-0.06318649
250	0xbc0d68ed	-0.008630973
251	0x3d01f80c	0.031730697
252	0xbc8d7086	-0.01726557
253	0x3ce10979	0.027470337
254	0xbc4d1fe8	-0.012519814
255	0xbc110a8f	-0.008852615

bias f4 [120]
0	0x3c493879	0.012281531
1	0x3c2bb6bf	0.010480582
2	0xbd0a2520	-0.03372681
3	0x3a7f33a1	0.00097351713
4	0xbc5561ec	-0.013023835
5	0x3ded8083	0.11596777
6	0x3e016a13	0.1263812
7	0x3db8bc32	0.090202704
8	0x3d802a87	0.062581114
9	0x3dc50b5f	0.096213095
10	0x3daff5df	0.08591818
11	0x3d2afc5e	0.041744582
12	0xbc7da0ff	-0.015480279
13	0xbd39d639	-0.045370314
14	0xbd661fcb	-0.056182664
15	0xbc6d5e1b	-0.0144877685
16	0xbd0b3547	-0.033986356
17	0x3d4586cb	0.04822425
18	0xb890496b	-6.88013e-05
19	0x3c51c771	0.012803898
20	0xbd753291	-0.059862677
21	0x3d0f9928	0.03505817
22	0x3d1d68e8	0.038430125
23	0x3d6f21ee	0.058381967
24	0x3dc6ce1c	0.09707281
25	0x3de76570	0.112986445
26	0xb6e47e62	-6.8096424e-06
27	0x3c4fca11	0.012682454
28	0x3d19f52a	0.037587322
29	0x3de3f3ac	0.11130461
30	0xbd29cc1a	-0.041454412
31	0x3d360aeb	0.044444006
32	0x3d5bdbcb	0.053676408
33	0xbcc3273b	-0.023822417
34	0x3d153145	0.03642394
35	0x3df5ddf0	0.12005222
36	0xbd6403af	-0.055667575
37	0x3d839756	0.064253494
38	0xbc87b3ea	-0.016565282
39	0x3cb8bf69	0.022552209
40	0x3d5fff11	0.05468661
41	0x3db28e6e	0.087185726
42	0x3daaffc5	0.083495654
43	0xbbf7740c	-0.0075516757
44	0x3d95a668	0.0730713
45	0x3cb0cb69	0.021581369
46	0x3c90ee81	0.017691853
47	0x3cb75414	0.022378959
48	0x3d2b3653	0.041799854
49	0x3d33b13e	0.043870203
50	0x3ca100b1	0.01965365
51	0xbcd61c60	-0.026136577
52	0xbd29a4b2	-0.04141683
53	0x3e01779c	0.12643284
54	0x3d825018	0.06362933
55	0x3d74ee46	0.059797548
56	0x3cba339e	0.022729691
57	0xbd403de8	-0.04693404
58	0xbcd24629	-0.02566822
59	0x3dd4342f	0.10361516
60	0x3b464571	0.0030253793
61	0x3b2d671c	0.0026459163
62	0x3c981b3a	0.01856767
63	0x3c87c9c1	0.016575696
64	0xbc0f8d01	-0.008761645
65	0xbbe214ca	-0.006899451
66	0xbd47a032	-0.04873676
67	0xbd38a212	-0.045076437
68	0x3d1f9b0f	0.038966235
69	0x3d8c2c53	0.06844392
70	0x3c868aba	0.016423572
71	0x3c4486ea	0.011995057
72	0x3dbda827	0.09260588
73	0x3db95c01	0.090507515
74	0x3d309e78	0.043119878
75	0xbb11bcbb	-0.0022237736
76	0x3c94babc	0.018155448
77	0x3b869f7a	0.0041083666
78	0x3be50fe0	0.006990418
79	0x3d2bb6d3	0.0419224
80	0x3d5a7ce9	0.05334178
81	0x3dfa8670	0.12232673
82	0xbcc240c5	-0.023712525
83	0x3d46cf45	0.04853751
84	0x3d9b4a71	0.07582558
85	0x3d6903ab	0.056888264
86	0x3d670335	0.056399543
87	0x3de65cb8	0.112481534
88	0x3db155e8	0.086589634
89	0x3c8a6bbe	0.016897079
90	0x3c84b48d	0.016199375
91	0x3c58f901	0.013242961
92	0xbc591473	-0.013249504
93	0x3d900f19	0.0703413
94	0xbb146eaf	-0.002264898
95	0x3d4b8714	0.049689367
96	0x3d986bc5	0.074424304
97	0x3d9c4d78	0.076319635
98	0x3b686274	0.0035459073
99	0x3c27148a	0.010197768
100	0x3dc3ca8e	0.095601186
101	0x3e0d67e2	0.1380916
102	0xbc138b5a	-0.009005392
103	0x3dd169e0	0.10225272
104	0x3e01dc0c	0.12681597
105	0xbc4cfe89	-0.012511858
106	0x3da2e14c	0.07953128
107	0xbc9e9da5	-0.01936228
108	0x3dad47c7	0.08460956
109	0x3dc90533	0.09815445
110	0xbce97cc8	-0.028501883
111	0xbccc7715	-0.024959126
112	0xbc42b8b9	-0.011884862
113	0xbcde406d	-0.02713033
114	0x3af71c40	0.0018853024
115	0xbcdd2274	-0.026993968
116	0x3ce100f0	0.027466267
117	0x3d732af3	0.05936713
118	0xbd95f015	-0.07321183
119	0xbd3188c2	-0.043343313

weight f4 [84, 120]
0	0xbd61ac52	-0.055095978
1	0xbbd9af1a	-0.006643188
2	0xbd87d232	-0.066318884
3	0xbd043acc	-0.032282636
4	0xbd1c41c5	-0.03814866
5	0xbd700a3c	-0.05860351
6	0x3da5baec	0.08092293
7	0xbdb745b5	-0.089488424
8	0x3da50822	0.08058192
9	0x3c8ec73e	0.01742899
10	0x3c460350	0.012085751
11	0x3dd48d64	0.103785306
12	0xbd9a2716	-0.07526986
13	0xbd90845c	-0.070564955
14	0x3d3bba7b	0.04583214
15	0x3c981880	0.01856637
16	0xbd9a3cbf	-0.07531118
17	0xbdaad76e	-0.08341871
18	0xbdb12e81	-0.08651448
19	0x3dd8ed19	0.10592098
20	0x3da225fb	0.079174004
21	0x3cf247b3	0.029575204
22	0xbcdc5763	-0.026897138
23	0xbdeac9b5	-0.11464254
24	0x3d0ce46f	0.03439754
25	0x3d4e9da9	0.050443325
26	0xbd049b53	-0.03237469
27	0x3d8dbe16	0.06921022
28	0xbc736793	-0.014856237
29	0x3c2bf344	0.010495011
30	0x3cbc84f4	0.023012616
31	0x3d2808e7	0.041024115
32	0xbdb49764	-0.08817938
33	0x3da227af	0.07917725
34	0xbc8fca96	-0.017552655
35	0x3c7958cb	0.015218924
36	0x3d6fdba0	0.05855906
37	0xbd86e924	-0.06587437
38	0xbc86e62d	-0.016467178
39	0x3d69e48f	0.057102736
40	0xbd14297d	-0.03617238
41	0x3c87e3ce	0.016588118
42	0x3c07c4d6	0.008286675
43	0xbb4a28a0	-0.0030846968
44	0xbc9093b0	-0.017648548
45	0x3cfb16ac	0.03065046
46	0x3dbd0cc8	0.092309535
47	0xbd50d92c	-0.05098836
48	0x3d91781d	0.07102988
49	0x3c87c170	0.01657173
50	0xbd326ff6	-0.043563806
51	0xbd778bd8	-0.0604361
52	0xbcd87e1b	-0.02642732
53	0x3d9226c9	0.07136304
54	0x3dfa1708	0.12211424
55	0xbd743700	-0.059622765
56	0x3cefb32a	0.029260237
57	0x3d284b2e	0.041087322
58	0x3c25a7e6	0.010110831
59	0x3c841c06	0.016126644
60	0xbce396d9	-0.02778189
61	0x3cc0b37b	0.023523083
62	0xbe025498	-0.12727582
63	0xbd786434	-0.060642436
64	0xbcaf3f74	-0.021392561
65	0x3e08653a	0.13319865
66	0x3cfc50af	0.030800192
67	0x3d87a753	0.066237114
68	0x3d52ec4e	0.05149489
69	0xbba3ff1d	-0.005004777
70	0x3d8ca4c5	0.06867365
71	0x3cc40b14	0.023931064
72	0xbdef59d1	-0.11687053
73	0xbcf3e655	-0.029772917
74	0x3ce964ad	0.028490389
75	0x3d301baa	0.042995133
76	0xbdb90d17	-0.090357
77	0x3be203c7	0.006897423
78	0x3da378a4	0.07981995
79	0x3cf4f175	0.029900292
80	0xbc57a749	-0.0131624425
81	0x3c3a9bff	0.011389731
82	0x3d9a6b44	0.075399905
83	0x3bfe1332	0.007753753
84	0x3d2a1bdb	0.04153047
85	0x3db54c2e	0.08852421
86	0x3d9b832d	0.07593379
87	0x3d61e379	0.055148575
88	0xbe03ecd7	-0.12883316
89	0xbc228270	-0.009918794
90	0x3d89f432	0.0673603
91	0xbd4fa471	-0.050693933
92	0xbd9c34a1	-0.07627226
93	0x3d8d1a94	0.06889835
94	0xbd3f0005	-0.046630878
95	0xbdc72048	-0.09722954
96	0x3d820508	0.06348616
97	0x3c1d2edf	0.0095936945
98	0x3e0b0ddc	0.13579506
99	0xbd18f668	-0.037344366
100	0x3dbb8be1	0.09157539
101	0x3de66432	0.112495795
102	0x3d7ada9e	0.061243646
103	0xbcc81950	-0.024426132
104	0xbdd4b74b	-0.10386523
105	0x3df60fdf	0.12014746
106	0xbd012073	-0.031525087
107	0xbdfda136	-0.12384264
108	0xbd142409	-0.03616718
109	0x3cab6415	0.020921746
110	0xbcc4a6b0	-0.024005264
111	0xbc9516bb	-0.018199315
112	0xbd5ff3e0	-0.054675937
113	0xbc4897af	-0.012243195
114	0xbdb7e6a6	-0.089795396
115	0xbdc015af	-0.09379136
116	0x3d88d509	0.06681258
117	0x3cd8e09b	0.026474288
118	0x3dc741d8	0.097293556
119	0x3d39925a	0.045305587
120	0xbd34ba55	-0.044123013
121	0xbd9455aa	-0.072429016
122	0xbd39e182	-0.045381077
123	0x3c687ecd	0.014190388
124	0xbcefe1f4	-0.029282548
125	0xbd9a8ae9	-0.07546026
126	0x3d4291f6	0.04750248
127	0x3d7c6121	0.061616067
128	0xbdb69350	-0.089148164
129	0x3daf6cfe	0.085657105
130	0x3ca7aec7	0.020469083
131	0xbd3d6816	-0.046241842
132	0xbd86b3ad	-0.06577239
133	0x3d75557f	0.05989599
134	0xbdb49916	-0.08818261
135	0x3d940f7b	0.07229515
136	0x3c4f82e8	0.012665488
137	0x3cf6f1f6	0.030144673
138	0xbcbc7207	-0.023003591
139	0xbdcdc094	-0.10046497
140	0xbd53ccfd	-0.051709164
141	0xbd7530bf	-0.05986094
142	0xbd658276	-0.05603262
143	0x3c914e68	0.017737582
144	0x3d1e1f84	0.038604274
145	0xbd68a910	-0.056801856
146	0x3d72231f	0.059115525
147	0xbd26727b	-0.04063652
148	0xbdd60f90	-0.10452187
149	0xbd0f62c5	-0.035006303
150	0x3d85b8be	0.065293774
151	0xbbffc04e	-0.007804907
152	0xbd1d75ce	-0.038442425
153	0x3d1709d9	0.036874626
154	0x3dad283c	0.0845494
155	0x3d6d744d	0.05797224
156	0x3bed0de8	0.007234324
157	0x3dd0b2cd	0.101903535
158	0x3b4b1674	0.0030988725
159	0xbaa7c865	-0.0012800811
160	0xbd916aa5	-0.07100419
161	0x3c835fe0	0.016036928
162	0x3c6875c8	0.0141882375
163	0xbcdc4486	-0.026888143
164	0x3b2fe061	0.002683662
165	0xbde08b6a	-0.10964091
166	0xbdbe5d7f	-0.09295177
167	0xbb683139	-0.003542973
168	0x3c8cc4be	0.017183658
169	0xbdafb0ee	-0.085786685
170	0xbd822f4f	-0.0635668
171	0xbdce8750	-0.100844026
172	0x3dba2b4e	0.09090291
173	0xbc6c6f89	-0.014430889
174	0x3d1c0acd	0.038096238
175	0xbd8425c5	-0.064525165
176	0xbd9a8145	-0.075441875
177	0xbd5d9f20	-0.05410683
178	0xbcce37ed	-0.025173152
179	0x3cbe4918	0.023228213
180	0x3a4a6bef	0.0007721772
181	0xbb85b89d	-0.0040808455
182	0xbd4c1b4a	-0.049830712
183	0x3c9b366c	0.018946849
184	0xbcfc30ee	-0.03078505
185	0x3b825ef8	0.0039786063
186	0xbc0a96e2	-0.008458825
187	0x3b7fc154	0.0039025145
188	0x3dd10273	0.10205545
189	0x3d330791	0.043708388
190	0x3d8d7d38	0.06908649
191	0x3da07898	0.078355014
192	0x3c3cfb73	0.01153456
193	0x3d1e1514	0.03859432
194	0xbc98fe12	-0.018675838
195	0xbd907b57	-0.07054775
196	0x3cfd4ccf	0.030920414
197	0xbdb30acd	-0.087422945
198	0x3cb6a277	0.022294266
199	0xbd86c06b	-0.065796696
200	0x3d8bb4c9	0.068215914
201	0x3c817cea	0.015806634
202	0xbcb8f85e	-0.022579368
203	0xbd747aa8	-0.059687287
204	0xbd833bd0	-0.06407893
205	0x3dbe0322	0.09277941
206	0x3d7062ec	0.05868809
207	0xbdb0dca5	-0.086358346
208	0x3d83fb8a	0.06444462
209	0x3d52ccb5	0.051464755
210	0xbd510599	-0.05103073
211	0xbcbd74a3	-0.023126906
212	0xbd9fbb76	-0.07799427
213	0xbd28c5d0	-0.041204274
214	0x3d57a9d1	0.052652184
215	0x3ced552e	0.02897128
216	0x3d96c425	0.0736163
217	0xbd8647d7	-0.06556671
218	0xbd007080	-0.03135729
219	0xbd84e065	-0.06488112
220	0x3d3d87ea	0.046272196
221	0xbbc0ff21	-0.0058897887
222	0xbb4ab296	-0.00309292
223	0xbd0471da	-0.03233514
224	0xbd4f0ec7	-0.050551202
225	0xbd5e9f20	-0.054350972
226	0x3d7498f1	0.05971617
227	0xbd25ca2b	-0.040476006
228	0x3cde9362	0.027169887
229	0x3cdf125d	0.027230436
230	0x3ceb5fe0	0.02873224
231	0xbcbcc55b	-0.023043325
232	0xbd97e32f	-0.07416379
233	0xbdc3d47f	-0.09562015
234	0x3d8f5f42	0.07000591
235	0xbd6adb36	-0.057337962
236	0xbdcf2c44	-0.10115865
237	0xbdc70671	-0.097180255
238	0xbd90d715	-0.07072274
239	0x3da0db54	0.078543335
240	0xbd0cd4ac	-0.034382507
241	0x39b6d858	0.00034874934
242	0xbce633d0	-0.028100878
243	0x3db19ce3	0.08672502
244	0xbd50e32d	-0.0509979
245	0x3cabaefa	0.020957459
246	0xbb18b8d2	-0.002330352
247	0x3c8187f7	0.015811903
248	0x3c25cab8	0.010119133
249	0xbd8efc5f	-0.0698173
250	0x3e112f85	0.14178284
251	0x3d3a8f64	0.045546904
252	0xbd5fe950	-0.054665864
253	0xbd3bbfb3	-0.045837115
254	0x3d447615	0.047964174
255	0x3dc46934	0.095903784

bias f4 [84]
0	0xbd1170b7	-0.035507884
1	0x3da303f6	0.0795974
2	0xbd29ea68	-0.041483313
3	0x3df5dac4	0.12004617
4	0x3dc6a721	0.09699846
5	0xbb29a0c9	-0.002588319
6	0xbd841770	-0.06449783
7	0x3e1e2714	0.15444595
8	0x3d1adce0	0.0378083
9	0x3cf2f561	0.029658021
10	0x3c07076c	0.008241516
11	0x3debed61	0.11519886
12	0x3e001340	0.12507343
13	0xbca7b688	-0.02047278
14	0x3e188d50	0.14897656
15	0xbc40a155	-0.011757215
16	0x3dd2dc9b	0.102959834
17	0x3df6171b	0.12016126
18	0xbd2d5b73	-0.04232354
19	0x3a3ae9f3	0.0007130198
20	0x3cfa4d08	0.03055431
21	0xbd12059c	-0.03564988
22	0x3d51f968	0.051263243
23	0x3cb881f7	0.02252291
24	0x3d77d28f	0.06050354
25	0xbc2257e0	-0.009908646
26	0x3d5a293d	0.053261984
27	0x3cb47bef	0.022031752
28	0xbda5fc19	-0.081047244
29	0xbd002c66	-0.03129234
30	0x3d785626	0.060629033
31	0xbc8fb46f	-0.017542092
32	0x3da55f19	0.08074779
33	0xbd47f381	-0.048816208
34	0xbd83e949	-0.0644098
35	0xbd01ce3f	-0.031690832
36	0x3d2a92f8	0.041644067
37	0xbd5376f2	-0.051627107
38	0xbd8dda53	-0.06926408
39	0xbdbe59cf	-0.092944734
40	0xbc7ca4d9	-0.015420162
41	0x3c8bd05e	0.01706713
42	0xbda9498e	-0.082659826
43	0x3d51e879	0.051247094
44	0xbd93de27	-0.072201066
45	0xbc9177da	-0.017757345
46	0x3e0d9e32	0.13829878
47	0xbbd56661	-0.0065124487
48	0x3d8c7795	0.06858746
49	0x3d56de55	0.052458126
50	0x3e390974	0.18070012
51	0xbd648930	-0.055794895
52	0x3dd365b1	0.103221305
53	0xbceaedc9	-0.028677838
54	0x3c669853	0.014074403
55	0x3c76d42c	0.015065234
56	0xbd5705dd	-0.052495826
57	0xbdc247a9	-0.09486324
58	0xbd349999	-0.044091795
59	0x3db98431	0.09058417
60	0x3c5dca0b	0.01353694
61	0x3e0411e9	0.12897457
62	0x3cfc2721	0.030780377
63	0x3d1d35ab	0.03838126
64	0x3db46e6a	0.08810122
65	0xbc160e1c	-0.009158637
66	0x3da7e32a	0.08197625
67	0x3d6aeefe	0.057356827
68	0x3c7a8d59	0.015292489
69	0xbce73cff	-0.028227327
70	0xbd487e29	-0.04894844
71	0xbd987fa1	-0.07446218
72	0x3dd2b044	0.10287526
73	0xbda9a924	-0.08284214
74	0x3dfcc425	0.12342099
75	0xbd36e389	-0.04465059
76	0xbd917033	-0.071014784
77	0xbd2a9345	-0.041644353
78	0x3e105770	0.14095855
79	0xbd71fa92	-0.059076853
80	0xbd6f4430	-0.058414638
81	0x3d93cd14	0.0721685
82	0x3d23cd21	0.039990548
83	0x3dc05164	0.09390524

weight f4 [10, 84]
0	0xbbd23913	-0.006415495
1	0xbd9e8c7a	-0.077416375
2	0x3df769e1	0.12080742
3	0xbc9b7b6c	-0.01897975
4	0xbd59cc72	-0.05317349
5	0x3d925c19	0.071464725
6	0xbc156b4d	-0.009119821
7	0x3e037f68	0.1284157
8	0xbd9170ca	-0.07101591
9	0xbd72a26d	-0.059236933
10	0x3dce9635	0.100872435
11	0xbbcb502c	-0.0062046256
12	0x3dbcf547	0.092264704
13	0xbd836017	-0.06414812
14	0xbdb223cd	-0.08698235
15	0xbd165dcf	-0.036710557
16	0xbdc80231	-0.09766043
17	0xbd956d6e	-0.07296263
18	0xbd567d05	-0.05236532
19	0x3e070e71	0.13189103
20	0x3dc01adb	0.09380122
21	0xb8a45b7c	-7.83717e-05
22	0xbdd14291	-0.10217775
23	0xbde44419	-0.11145801
24	0xbdda26ef	-0.10651957
25	0xbd7620f5	-0.060090024
26	0x3d81fa1f	0.06346535
27	0xbd6860bb	-0.056732874
28	0xbd3b64e6	-0.04575052
29	0xbe00e9d4	-0.12589198
30	0x3c9c7f52	0.01910368
31	0x3daf5ab8	0.08562225
32	0x3dc62e29	0.09676773
33	0x3dae0660	0.0849731
34	0xbdb86439	-0.09003491
35	0xbdbe0572	-0.09278382
36	0x3dc19138	0.094515264
37	0x3c26962d	0.010167641
38	0xbdbf6cde	-0.09346937
39	0x3cb75ec2	0.022384051
40	0x3c93b172	0.018028948
41	0x3db23ccc	0.08703002
42	0x3ca64b94	0.02029971
43	0xbd527c2b	-0.051387947
44	0xbda48388	-0.080329
45	0xbd7ab9f1	-0.061212484
46	0xbda3e51e	-0.08002685
47	0xbd8e9372	-0.06961717
48	0xbd61bbe7	-0.05511084
49	0xba0a8aa3	-0.00052849407
50	0xbda19ac9	-0.07890851
51	0xbd17fdf0	-0.037107408
52	0x3de97675	0.11399547
53	0x3dcf05e0	0.101085424
54	0xbdc88efe	-0.097928986
55	0x3d8e7414	0.06955734
56	0x3da9b663	0.08286741
57	0xbb2c130d	-0.0026256472
58	0xbc61c5c1	-0.013780058
59	0x3dc10dfb	0.09426495
60	0x3dabbf9d	0.08386157
61	0x3c088e83	0.008334759
62	0x3daea34c	0.0852724
63	0xbd235552	-0.03987629
64	0x3dde2a96	0.108479664
65	0x3dd283a5	0.102790155
66	0x3d605dba	0.054776885
67	0x3d0e2d3e	0.034711115
68	0x3cdb63c1	0.026780965
69	0x3d04b672	0.032400556
70	0xbdd7a736	-0.1052994
71	0xbdc30e4c	-0.09524211
72	0x3d2f9d23	0.042874467
73	0xbdbe91f8	-0.09305185
74	0x3df24472	0.11829461
75	0xbd911e41	-0.070858486
76	0x3d4eb88d	0.05046897
77	0xbcdb6a70	-0.026784152
78	0xbdda280d	-0.1065217
79	0x3d04db1f	0.032435533
80	0xbd1a9560	-0.03774011
81	0x3d1f873e	0.038947336
82	0xbe07c311	-0.13258006
83	0xbd9a855c	-0.075449675
84	0xbdb53022	-0.08847071
85	0xbd18c4cb	-0.03729705
86	0x3d566304	0.052340522
87	0xbd8ff52c	-0.07029185
88	0x3ce50fdb	0.027961662
89	0xbd7e7be1	-0.06212986
90	0x3a1d7c22	0.0006007572
91	0x3d998ac0	0.074971676
92	0x3d88211a	0.066469386
93	0x3df0aa16	0.11751191
94	0xbcfe562d	-0.031046951
95	0xbc4f1e0e	-0.012641443
96	0xbe0253a0	-0.12727213
97	0xbc7c664f	-0.015405252
98	0x3d9a7f2f	0.075437896
99	0xbdf5cd13	-0.120020054
100	0xbd228a2c	-0.039682552
101	0x3da066cf	0.07832109
102	0xbd42aecf	-0.04752999
103	0x3cb6ab5f	0.022298513
104	0x3ccccb86	0.024999391
105	0x3d013241	0.031542066
106	0x3d122c3a	0.03568671
107	0xbde196b3	-0.11015072
108	0x3dc2626c	0.09491429
109	0x3dd2ac4d	0.1028677
110	0xbd8d3ce0	-0.068963766
111	0x3d7e9010	0.062149107
112	0xbdc61ccb	-0.096734606
113	0x3dbc06cb	0.09180983
114	0x3db30bd9	0.08742494
115	0xbd1f301f	-0.03886425
116	0x3e06d1ee	0.1316602
117	0x3dccc683	0.099988006
118	0x3c7e4678	0.015519731
119	0xbd4d63e7	-0.050144102
120	0xbd0b1354	-0.03395398
121	0x3db0434c	0.08606586
122	0xbccdaf63	-0.025108045
123	0xbdd5be15	-0.10436646
124	0xbd8efd3a	-0.06981893
125	0xbda90403	-0.08252718
126	0x3e04334f	0.12910198
127	0x3d8855a4	0.0665696
128	0xbcddb834	-0.027065374
129	0x3c38cd52	0.011279421
130	0xbe278cb5	-0.16362269
131	0xbc02bdf6	-0.0079798605
132	0x3bebd9c2	0.0071975896
133	0xbd1b4499	-0.037907217
134	0xbe128049	-0.1430675
135	0x3deab985	0.11461166
136	0xbd994d4e	-0.07485448
137	0x3c400d32	0.011721896
138	0xbc015f2f	-0.007896229
139	0x3d2687ee	0.040656976
140	0x3dbc61a5	0.09198312
141	0xbe035911	-0.12826945
142	0x3c668142	0.014068903
143	0x3dc8d003	0.098053
144	0xbd35c25b	-0.044374805
145	0x3d9b375c	0.07578918
146	0x3d9d8427	0.07691222
147	0x3de168fe	0.11006354
148	0xbdda3130	-0.10653913
149	0xbd2f1a1b	-0.042749505
150	0xbd6143cd	-0.0549963
151	0xbd8eb89b	-0.069688044
152	0xbd14cfa7	-0.036330845
153	0x3d6a9e6c	0.05727999
154	0xbc275400	-0.010212898
155	0x3cb3481c	0.02188497
156	0x3d4729e4	0.048623934
157	0x3d02c0bb	0.031922083
158	0xbd804278	-0.06262678
159	0xbc90e756	-0.017688435
160	0xbc65e6d8	-0.014032088
161	0xbdaaf93f	-0.08348321
162	0xbe146b87	-0.14494143
163	0x3d2f81c7	0.042848375
164	0x3d3910e2	0.045182116
165	0x3d03a811	0.032142702
166	0x3dc98cbd	0.09841297
167	0x3d28c75e	0.041205756
168	0xbd90280f	-0.070388906
169	0x3d8eb534	0.069681555
170	0xbddcf587	-0.10789018
171	0xbdb24051	-0.08703674
172	0xbca16c7f	-0.019705055
173	0xbd8a0b67	-0.06740456
174	0xbdc9d447	-0.09854942
175	0x3da3ccbd	0.07998035
176	0x3cce7b29	0.025205212
177	0xbe12282c	-0.14273137
178	0x3b2841f5	0.002567408
179	0xbca00425	-0.019533226
180	0x3dea9113	0.11453452
181	0xbd2b6193	-0.0418411
182	0xbd160e48	-0.036634713
183	0x3dbd02d5	0.09229056
184	0x3dd4f0b3	0.10397472
185	0x3e03c038	0.12866294
186	0xbd41760c	-0.04723172
187	0x3dc64d00	0.09682655
188	0x3d8daad2	0.06917347
189	0xbd904354	-0.07044092
190	0x3d1a2485	0.037632484
191	0xbe1ca87c	-0.15298647
192	0xbc10404b	-0.008804391
193	0xbd8fcab4	-0.070210844
194	0x3cd32865	0.025776098
195	0xbd84e423	-0.06488826
196	0x3ca9e6f4	0.02074001
197	0xbdd3122b	-0.103062
198	0xbd03faa1	-0.03222144
199	0xbd22e51c	-0.039769277
200	0xbd7ad1fa	-0.061235406
201	0xbde60bd1	-0.112327226
202	0xbd9f196d	-0.077685215
203	0xbd491ec7	-0.049101617
204	0x3db1a3ce	0.086738214
205	0xbdc0a7bd	-0.094069935
206	0xbcb4e57d	-0.022082085
207	0x3d1aa25f	0.037752505
208	0xbde0cd57	-0.109766655
209	0x3d5a0438	0.05322668
210	0x3d9013a6	0.07034998
211	0xbe170f5c	-0.14751953
212	0x3b39fdd3	0.002838005
213	0xbd2f758e	-0.04283672
214	0x3d3c249b	0.045933347
215	0xbd27dc3c	-0.040981516
216	0x3bbe2d97	0.0058037746
217	0x3d5c3ad1	0.05376703
218	0xbd8b7c75	-0.06810848
219	0xbd1d56b3	-0.03841276
220	0x3d9380b6	0.07202284
221	0xbd5a11d4	-0.05323966
222	0x3dc97d5a	0.09838362
223	0xbc1bf10d	-0.00951792
224	0xbd40ec59	-0.0471004
225	0x3de0caa0	0.10976148
226	0x3dc34d5c	0.095362395
227	0xbdcb2584	-0.09919265
228	0x3db44d4f	0.08803808
229	0x3bbbee9b	0.005735231
230	0x3dbf83a8	0.09351283
231	0xbddf957a	-0.10917182
232	0xbd7e4c62	-0.062084563
233	0x3d891748	0.06693894
234	0xbdec0512	-0.115244046
235	0xbdc3ea9a	-0.09566231
236	0xbbf071c1	-0.0073377793
237	0x39c23ce8	0.00037047942
238	0x3d5b4d11	0.053540293
239	0x3cccc4d4	0.024996199
240	0x3c24bbd9	0.010054552
241	0xbd3ec9e8	-0.04657927
242	0xbd91b96c	-0.071154445
243	0xbc917ccd	-0.017759705
244	0x3d55cdd8	0.05219826
245	0xbd8325ca	-0.06403692
246	0x3da73f27	0.08166342
247	0xbdc85851	-0.0978247
248	0xbd110626	-0.035406254
249	0x3d8ec0a0	0.06970334
250	0xbd96e5e6	-0.073680684
251	0xbd0a17de	-0.033714168
252	0xbddc0031	-0.10742224
253	0x3deee09e	0.11663936
254	0x3bc11386	0.00589222
255	0xbc2c92b9	-0.010533028

bias f4 [10]
0	0x3dafadbc	0.08578059
1	0x3d706ab5	0.058695514
2	0x3ddce7b3	0.107863806
3	0xbd0e9a46	-0.034815095
4	0x3d4378dc	0.047722682
5	0xbc5d62cb	-0.013512324
6	0xbd6a3a34	-0.057184413
7	0x3dd7774f	0.10520803
8	0xbdd8487e	-0.10560702
9	0xbd972e36	-0.07381861
